# Ultralytics ðŸš€ AGPL-3.0 License - https://ultralytics.com/license

# RTOD-YOLO for VisDrone Dataset
nc: 10  # VisDrone classes
depth_multiple: 0.33
width_multiple: 0.50

# é’ˆå¯¹ 4 ä¸ªå°ºåº¦çš„æ£€æµ‹å¤´é…ç½®é”šæ¡†
anchors:
  - [5,6, 8,14, 15,11]      # P2/4 (å¾®å°ç›®æ ‡)
  - [10,13, 16,30, 33,23]   # P3/8 (å°ç›®æ ‡)
  - [30,61, 62,45, 59,119]  # P4/16 (ä¸­ç›®æ ‡)
  - [116,90, 156,198, 373,326] # P5/32 (å¤§ç›®æ ‡)

# --- Backbone (ä½¿ç”¨ CSPRepBottleneck å’Œ RepBlock) ---
backbone:
  [
    [-1, 1, RepBlock, [64, 3, 2]],      # 0-P1/2
    [-1, 1, RepBlock, [128, 3, 2]],     # 1-P2/4
    [-1, 3, CSPRepBottleneck, [128]],   # 2
    [-1, 1, RepBlock, [256, 3, 2]],     # 3-P3/8
    [-1, 6, CSPRepBottleneck, [256]],   # 4
    [-1, 1, RepBlock, [512, 3, 2]],     # 5-P4/16
    [-1, 9, CSPRepBottleneck, [512]],   # 6
    [-1, 1, RepBlock, [1024, 3, 2]],    # 7-P5/32
    [-1, 3, CSPRepBottleneck, [1024]],  # 8
    [-1, 1, SPPF, [1024, 5]],           # 9
  ]

# --- Neck (ç‰¹å¾èžåˆ + GCAM æ³¨æ„åŠ›æœºåˆ¶) ---
# --- Neck (ç‰¹å¾èžåˆ + GCAM æ³¨æ„åŠ›æœºåˆ¶) ---
head:
  [
    [-1, 1, Conv, [512, 1, 1]],         # 10 
    [-1, 1, nn.Upsample, [None, 2, 'nearest']], # 11
    [[-1, 6], 1, Concat, [1]],          # 12 cat backbone P4
    [-1, 3, C3, [512, False]],          # 13 (P4 size)

    [-1, 1, Conv, [256, 1, 1]],         # 14
    [-1, 1, nn.Upsample, [None, 2, 'nearest']], # 15
    [[-1, 4], 1, Concat, [1]],          # 16 cat backbone P3
    [-1, 3, C3, [256, False]],          # 17 (P3 size)

    [-1, 1, Conv, [128, 1, 1]],         # 18
    [-1, 1, nn.Upsample, [None, 2, 'nearest']], # 19
    [[-1, 2], 1, Concat, [1]],          # 20 cat backbone P2
    [-1, 3, C3, [128, False]],          # 21 (P2 size - è¾“å‡ºåˆ° SDPH[0])

    # è‡ªåº•å‘ä¸Šèžåˆé€»è¾‘ä¿®æ­£
    [-1, 1, Conv, [128, 3, 2]],         # 22 (P2 -> P3)
    [[-1, 17], 1, Concat, [1]],         # 23 ä¿®æ­£ï¼šè¿žæŽ¥ç¬¬ 17 å±‚ (P3 çš„è¾“å‡ºå±‚) è€Œéž 18 å±‚
    [-1, 3, C3, [256, False]],          # 24
    [-1, 1, GCAM, [256]],               # 25 (P3 Attention - è¾“å‡ºåˆ° SDPH[1])

    [-1, 1, Conv, [256, 3, 2]],         # 26 (P3 -> P4)
    [[-1, 13], 1, Concat, [1]],         # 27 ä¿®æ­£ï¼šè¿žæŽ¥ç¬¬ 13 å±‚ (P4 çš„è¾“å‡ºå±‚) è€Œéž 14 å±‚
    [-1, 3, C3, [512, False]],          # 28
    [-1, 1, GCAM, [512]],               # 29 (P4 Attention - è¾“å‡ºåˆ° SDPH[2])

    [-1, 1, Conv, [512, 3, 2]],         # 30 (P4 -> P5)
    [[-1, 10], 1, Concat, [1]],         # 31 
    [-1, 3, C3, [1024, False]],         # 32
    [-1, 1, GCAM, [1024]],              # 33 (P5 Attention - è¾“å‡ºåˆ° SDPH[3])

    [[21, 25, 29, 33], 1, SDPH_Block, [nc, anchors]], 
  ]
